tf_model.tflite (tflite, 408144 bytes, 4 tensors)

dense/MatMul_bias f4 [128]
000000 7b e1 85 3e a7 74 86 bd fc 3d 23 bd 0e 61 5f be
       0.2614859 -0.065652184 -0.039854035 -0.21814367
000010 ef 28 03 3f 60 66 0b 3e ce 5c 0d 3f 78 90 52 3e
       0.51234335 0.13613272 0.55219734 0.20562923
000020 54 63 32 bd b0 da d6 3e fd 91 60 3d 08 96 6d bd
       -0.043551758 0.4196372 0.054826725 -0.05800441
000030 a1 93 ae be 61 cb 67 be d4 a1 6e 3e d1 7c a1 3e
       -0.34097007 -0.22636177 0.2330392 0.3154054
000040 96 09 2f 3e b8 1c e0 3e a5 55 d5 3e b5 43 9b 3d
       0.170935 0.4377191 0.41666904 0.075812735
000050 b3 06 28 be 59 d5 89 3d 71 91 90 be 8b 38 ab 3e
       -0.16408806 0.06730146 -0.28235963 0.33441576
000060 e7 77 30 3e 3d e7 98 3e 49 7b 8b 3c 1d 69 d1 bd
       0.17233239 0.2986392 0.01702656 -0.10225127
000070 a0 d8 75 be 18 53 8b 3b 0e 91 46 3e 0e 7a c7 bd
       -0.24008417 0.004251849 0.19391271 -0.09740077
000080 b1 70 a4 bc ee da c2 3d 98 63 65 bc 0b 62 b4 3e
       -0.020073267 0.09514414 -0.014000796 0.3523105
000090 80 06 04 3e 5f 55 13 3e 06 2c 94 3d 12 36 cb 3e
       0.12893105 0.14388035 0.07234959 0.3968969
0000a0 e0 dd 39 3e 9f ab 89 bd ee 67 5a 3e f5 49 6d 3d
       0.18151045 -0.06722187 0.21328709 0.05793186
0000b0 23 94 83 3e bd 92 7c be 21 6d 0f bd 55 7a 8b bc
       0.25698957 -0.24665351 -0.035016183 -0.017026106
0000c0 c8 b1 b5 3e 79 ea ed 3d a7 71 18 3f 3f d3 5a 3e
       0.354872 0.11616988 0.5954842 0.21369646
0000d0 15 b6 82 3d 4c 60 3e 3f 85 53 ae 3e 9a 51 21 be
       0.06382386 0.7436569 0.34048095 -0.15753785
0000e0 e5 97 3a be a8 1b 89 3d de 0d 8f 3e 67 80 85 3e
       -0.18222006 0.06694728 0.27940267 0.26074526
0000f0 aa 8d ff 3e 32 e2 87 3e 68 b6 25 bd 4e 5c 9d 3e
       0.4991277 0.2653976 -0.04045716 0.30734485
000100 68 5c 84 3e 0c 3e 34 3d 83 ee 28 3e 22 f8 9c bd
       0.2585175 0.044004485 0.16497235 -0.07664515
000110 61 ba b8 3e 1f 28 45 3e 4e 79 76 3e cf c3 05 3f
       0.36079696 0.19253586 0.24069712 0.52251905
000120 fd 6c 41 3e 14 a2 cb 3d 2d 9e ba 3e 1d 21 cf 3d
       0.18889232 0.09943023 0.36448804 0.10113738
000130 55 4f 70 3e ce 9e bc 3e ad af c2 3e 1b cc 4f 3e
       0.23467763 0.36839908 0.38024655 0.20292704
000140 a3 86 e7 3e 39 84 da 3b 45 96 bf 3d fd ee e2 bc
       0.45219907 0.006668594 0.093548335 -0.02770185
000150 c9 96 d9 3e 3a d0 af bd 92 d9 8f bc 11 55 59 3e
       0.42497852 -0.08584638 -0.0175598 0.21223857
000160 4e 06 6a 39 42 ec 05 3f fb b5 9f 3e a8 b3 7d bc
       0.00022318328 0.52313626 0.31193528 -0.015484728
000170 e6 b8 ba 3e fe bb 7c 3e 84 c8 07 3e f3 e2 24 3e
       0.3646919 0.24681088 0.13260084 0.161022
000180 85 bf 57 be 9c 69 3c be 39 51 99 3e 5b 68 5a 3e
       -0.21069153 -0.18399662 0.2994478 0.21328871
000190 43 b5 43 3e c3 5b 9f 3e cb 50 89 3e 05 73 69 be
       0.19112115 0.31124696 0.26819453 -0.22797783
0001a0 19 3d 3f bc 75 13 07 3e e0 a7 87 be a9 77 69 be
       -0.011672282 0.13191016 -0.26495266 -0.22799553
0001b0 26 f6 a8 3d b2 ce ea 3d ae 41 01 3d e9 34 14 be
       0.08250074 0.11465205 0.031556778 -0.14473309
0001c0 0f 7a dd 3e 87 38 8c bc f8 59 02 3f 9f 4a ea bc
       0.43257186 -0.017116798 0.5091853 -0.028600035
0001d0 67 e6 62 3e da aa 96 3e 7a 05 0b be 75 b8 a9 be
       0.22158204 0.29427224 -0.13576308 -0.33148542
0001e0 ce 43 34 be 70 5d c6 3e 1b 25 3a bd 50 af 86 3d
       -0.1760399 0.38743162 -0.045445543 0.06576407
0001f0 3b 61 96 bd 4c 66 dc 3e 39 06 c5 3e 66 5a d9 be
       -0.07342764 0.43046796 0.3848131 -0.4245178

dense/kernel/transpose f4 [128, 784]
000000 4a e3 a7 3d 56 a0 c0 bd cb 83 29 3e 0f c0 3e 3e
       0.08197649 -0.09405582 0.16554181 0.18627952
000010 cd ef 1f be dd 6e 7a be c0 61 82 be 30 e2 02 be
       -0.1561882 -0.24456353 -0.25465202 -0.12781596
000020 34 62 35 3d 50 ec 77 3e e7 a3 c4 3e 19 88 00 be
       0.044283107 0.2421124 0.38406298 -0.12551917
000030 1d 99 90 be 03 5c a6 be 96 6f 85 be da b5 94 be
       -0.28241816 -0.32492074 -0.26061696 -0.29044992
000040 2d a4 36 be f7 0f 44 3e 20 cf 70 3e d5 29 a5 bb
       -0.17836066 0.19146715 0.23516512 -0.005040387
000050 19 b1 b2 be 36 e4 cb be b1 e5 6d be 20 97 1e be
       -0.3490074 -0.3982255 -0.23232152 -0.15487337
000060 16 77 80 3e 5e 2b 4b 3d 23 08 16 bd 96 ba 19 be
       0.25090855 0.049601905 -0.036628854 -0.15012583
000070 2f f0 6b 3d 83 74 d5 3d f1 d6 02 3e 16 6c 6a bd
       0.057602104 0.104226135 0.12777306 -0.057231985
000080 0c 10 be 3d 8a 1d 98 3d 46 d8 57 bd 4d 54 5e 3e
       0.092804044 0.07427509 -0.05269649 0.21711846
000090 71 fd 99 3d 6d 0f 77 3d c9 56 1f 3d b9 6a bb bd
       0.07519043 0.060317446 0.038901124 -0.09151215
0000a0 7e 51 16 3e 52 77 27 3e bd 83 cf bc 65 f7 2a 3e
       0.14679524 0.16354111 -0.025331372 0.16695936
0000b0 ba c6 cd bb b3 77 8c bc 8c 6a f2 3d ce df dd 3d
       -0.0062797936 -0.01714692 0.118367285 0.10833703
0000c0 a9 f3 04 bd b2 6a a8 3c d0 f3 08 be 84 98 0f bd
       -0.032458935 0.020558689 -0.13374257 -0.03505756
0000d0 d0 e5 69 3e d7 70 df 3d 29 1f 2f 3d 02 ca 30 bd
       0.22841573 0.10910194 0.042754326 -0.0431614
0000e0 ab 86 67 3e 1e a8 a1 3e 57 8e a5 3e 2b 45 c2 bb
       0.22609966 0.31573576 0.3233516 -0.0059286556
0000f0 13 2d 92 bc 35 c0 1a 3e 78 2f 0c 3f 86 dc d6 3e
       -0.017843759 0.15112384 0.5475993 0.4196512
000100 96 80 70 bc 45 a6 8b 3c 0e 29 fc 3d f9 6e b9 3d
       -0.014679095 0.017047057 0.12312518 0.090543695
000110 49 dc 5d bc 86 96 5c 3c 69 c8 f9 3c a3 a3 30 bd
       -0.01354129 0.013463622 0.03049107 -0.043124806
000120 85 5e 47 bd b7 c8 93 bc 5b 73 8a 3c e7 c0 7d 3d
       -0.048674125 -0.018040044 0.016900709 0.061951544
000130 78 7d 75 3e 93 cc 9c 3e 75 fc 39 3e 71 82 99 bd
       0.23973644 0.30624828 0.18162711 -0.07495583
000140 12 6d 10 3d 48 e2 24 3e 91 0e 0f 3e 03 fa b2 3d
       0.035260268 0.16101944 0.139704 0.08739092
000150 a3 b9 ec 3e 43 e8 8d 3e 64 0d 68 3e 72 1b 9c 3c
       0.4623538 0.27716264 0.22661358 0.019056056
000160 64 ea ff 3d f1 fc b3 3e da 14 db 3e 22 f1 63 3e
       0.12495878 0.35153916 0.42789346 0.22259954
000170 01 c7 ee 3d a5 bd ac 3c 44 d0 76 3d ca d1 be bd
       0.11659051 0.021086523 0.06025721 -0.09317358
000180 a9 47 00 3d 32 7c 0e bc 40 83 28 be 81 42 65 bd
       0.03131834 -0.008696603 -0.16456318 -0.055971626
000190 4a e8 fe bb 63 2b 2e bd 04 82 00 bd 6d 97 5e bd
       -0.007779156 -0.042521846 -0.031373993 -0.05434363
0001a0 29 ca bb bc 62 d2 59 3e 3f 08 96 3e ab 10 96 3d
       -0.022923546 0.21271661 0.29303166 0.07327398
0001b0 60 b1 dc 3d 54 7a 2a 3d 7b 91 95 3d 77 ff e8 bc
       0.10776019 0.041620567 0.07303139 -0.028442128
0001c0 ae 15 58 3e a0 23 ba 3e 5a 0e 23 3e 86 a0 d9 3d
       0.2110202 0.36355305 0.15923443 0.106263205
0001d0 e0 5c 5b 3e ef e2 71 3e e4 a4 3c 3e f4 47 58 3e
       0.21422148 0.23621725 0.18422276 0.21121198
0001e0 46 89 01 3d 37 30 2b 3d 95 ce 0e 3d c5 37 d2 bd
       0.031625055 0.041794028 0.03486498 -0.102645434
0001f0 f9 98 22 bd f2 ae f8 bd cf 02 3b bd b3 ad 52 bd
       -0.039696667 -0.12142743 -0.045656975 -0.051435184
000200 1d 9e 4a bc d0 ba b9 bc 41 4f d2 3c 59 c8 80 bd
       -0.012366799 -0.022672087 0.025672557 -0.06288213
000210 a9 80 85 3d 60 b6 0b 3e c7 29 28 3d 04 9d 85 3e
       0.065186806 0.1364379 0.041055467 0.26096356
000220 1f 88 0e 3e e9 95 34 3e f8 30 ef 3d 16 cc 3b 3e
       0.13919114 0.17635311 0.11679262 0.18339571
000230 52 1f 8f 3e 76 e2 bd 3e 49 d1 80 3c a2 8d 3d 3e
       0.27953583 0.37086838 0.015724795 0.1851106
000240 fd 0f ff 3d 40 6c 2b 3e 14 87 64 3e 40 00 19 3e
       0.124542214 0.16740513 0.22317153 0.14941502
000250 9c c9 84 3d c6 13 fe bd f7 e0 9c bd 9d 11 ca bd
       0.064837664 -0.12406115 -0.07660096 -0.09866641
000260 34 c0 0a be b5 d4 63 be 04 1d 09 be db 76 e7 bd
       -0.13549882 -0.2224911 -0.13389975 -0.11301967
000270 38 98 06 be e8 15 09 be 52 b2 a7 bd f5 a6 27 bd
       -0.13144004 -0.13387263 -0.08188309 -0.040930707
000280 67 84 a8 3d 3f e6 76 3d 14 89 08 3e f0 18 66 3e
       0.08228379 0.060278174 0.13333541 0.2247045
000290 a9 2a 6c bc d8 92 70 3e 05 40 21 3e 93 0f f3 3d
       -0.014414468 0.23493516 0.15747078 0.11868205
0002a0 46 6c 27 3e ed c1 e1 3d 18 a4 8c bd 7c 63 36 3e
       0.16349897 0.110233165 -0.06867236 0.17811388
0002b0 b0 8b d5 3d 4f 10 ab 3d 31 bc 3d 3e e3 28 09 3e
       0.10427034 0.0835272 0.1852882 0.13394503
0002c0 1f 8f aa 3d eb b2 32 bd ab 0d f8 bd c6 ee d3 bd
       0.083280794 -0.04362766 -0.12111982 -0.10348277
0002d0 26 72 07 be ce d3 76 bd 54 06 56 bd 7c c6 6e bd
       -0.13227138 -0.060260586 -0.05225213 -0.05829476
0002e0 88 a2 c0 bd 03 bf fa bd 05 b4 d2 bc a9 59 d2 bd
       -0.094060004 -0.12243464 -0.025720606 -0.102710076
0002f0 3b b3 de 3c c7 c2 e8 3d a1 96 a5 3d d5 4f 95 3d
       0.027185073 0.11365276 0.08085371 0.072906174
000300 88 89 4d bd bc 36 8b 3d 87 53 44 3d f5 5c 3d be
       -0.05017999 0.06797549 0.04793122 -0.18492492
000310 21 01 f5 3c 04 d4 3b 3c 16 de 50 bd 9d 34 21 3e
       0.029907765 0.011464123 -0.050993048 0.15742727
000320 4d 07 93 bc b8 75 2f 3e 52 17 f9 3d 2b 7e 8c 3e
       -0.017947817 0.1713475 0.12162651 0.2744001
000330 5e 46 0d 3d 49 cb 98 bd 72 7a 3a bd 89 52 1b be
       0.034490936 -0.074606486 -0.04552693 -0.15168203
000340 c5 a6 64 bd 65 cc 3f bd d2 74 32 be 62 14 7e bd
       -0.055823106 -0.046825785 -0.17427376 -0.062031157
000350 f1 49 9a bd 96 4b 3b bc fc f0 6a bd 58 3b 81 bb
       -0.075336345 -0.011431595 -0.057358727 -0.003943842
000360 41 1f c6 3d e7 63 a6 3d bc 9d 9e 3d dd 12 e3 3c
       0.0967393 0.081245236 0.07744929 0.027718956
000370 0f f0 dc 3c 77 84 a9 bc 64 b4 41 bd 3f b0 8f bc
       0.026969938 -0.020693047 -0.047291175 -0.017540095
000380 54 90 1c 3e ae 8d 2f 3c 1e 1f 94 3c 78 bf 1f 3e
       0.15289432 0.010714931 0.018081244 0.15600383
000390 ec 4f 4d 3d 9c ef 36 3c 73 8e db 3d 34 fa 7f 3e
       0.050125048 0.011165526 0.107205294 0.24997789
0003a0 1c cb 27 3e 21 a7 d1 bd 45 71 82 bc 67 25 fb bd
       0.16386074 -0.102369554 -0.015923152 -0.12262993
0003b0 8d 00 e3 3c dd e0 f4 bd bb 7e 69 be 52 4c e3 bd
       0.027710224 -0.11956952 -0.2280225 -0.11098541
0003c0 e1 78 e1 bb 12 47 7c 3d b8 d0 73 3c 2c dd c8 bc
       -0.006880865 0.061591215 0.014881305 -0.024519525
0003d0 57 84 13 3d 0c 51 1c 3c a6 59 84 bc 57 85 6e bd
       0.03601488 0.009540807 -0.016156029 -0.05823263
0003e0 cd c8 fb 3d 19 6f 45 3c ca 39 26 3d 02 7c 5a 3e
       0.12294159 0.0120504135 0.040582456 0.21336368
0003f0 eb d7 63 3e ec d2 3f 3e fa 6f b9 bb 19 7e 13 3e
       0.22250335 0.18732804 -0.0056591006 0.14403571

dense_1/MatMul_bias f4 [10]
000000 14 9a ae 3c 74 ac b9 be cd f7 07 3e 74 12 43 3e
       0.021313705 -0.36264384 0.13278122 0.19050008
000010 6d 7e ad be b8 25 3e 3e e5 e3 68 3e cb d6 23 3e
       -0.33885518 0.18569076 0.22743185 0.15999906
000020 86 94 5b be d0 ed d1 be
       -0.21443376 -0.4100175

dense_1/kernel/transpose f4 [10, 128]
000000 8b 0e 03 3e e9 30 df bc f7 b5 98 3d d3 d9 64 bd
       0.12798516 -0.027245002 0.07456582 -0.055871796
000010 2a 8b 91 3d d5 22 b9 3d 41 8e a4 be a2 d4 4c 3e
       0.071066216 0.09039847 -0.3213978 0.20002988
000020 77 d9 dd bc c4 27 0d 3e 0e d3 bb bd 16 f3 0a 3e
       -0.027081234 0.137847 -0.09171115 0.13569292
000030 5a b4 6d bd d9 b3 c1 3c 82 c2 33 be f4 02 db 3c
       -0.058033325 0.023645328 -0.17554668 0.026734807
000040 7f be 13 be a2 97 2a be 0a 5e e2 3d 20 e8 f7 bd
       -0.14428137 -0.16659406 0.11053093 -0.12104821
000050 56 9c a9 3c 32 af 23 3d 66 33 93 be a8 ba 1a 3e
       0.02070443 0.039962 -0.2875015 0.15110266
000060 fc 10 50 ba d8 18 fb be eb aa 51 bd 04 1a d5 3d
       -0.0007937101 -0.49042392 -0.05118839 0.10405353
000070 f2 dd 46 be 7b 0d a3 be ce 07 26 be 65 71 6c be
       -0.19420603 -0.31846222 -0.16213915 -0.23090132
000080 81 57 f2 bb 8f ec 8f 3d 5d c0 3e be 0b 2f 4e be
       -0.007395685 0.07027542 -0.18628068 -0.20135133
000090 6c c1 83 3d eb b7 a1 3d 04 98 97 bd b6 c8 27 3e
       0.06433377 0.07896408 -0.074020416 0.16385159
0000a0 25 73 a8 3d 64 fc 9c 3e 3f 6c 9a bd 74 28 5f be
       0.08225087 0.3066131 -0.075401776 -0.21792775
0000b0 5c 3d c4 be e5 ff 3b be 82 5b f1 bd ea 0f 43 3d
       -0.38328063 -0.18359335 -0.11785032 0.0476226
0000c0 91 d8 e7 bd 44 d6 05 bd f6 a9 b7 3d 12 fd aa bc
       -0.11320604 -0.032675043 0.08967964 -0.020872626
0000d0 53 9d 9a bc 4d e3 ec be 18 e9 87 be c9 73 e5 bd
       -0.018873846 -0.46267167 -0.26545024 -0.11203725
0000e0 4d 40 b3 3d ea b2 92 be 48 e8 11 3e 4f 76 08 be
       0.08752499 -0.28652126 0.14248765 -0.13326381
0000f0 b5 68 2b 3e 0f ee 5f 3e 8e bc 8c 3c 42 23 6d bf
       0.16739161 0.21868156 0.017179754 -0.92631924
000100 9c a7 4d 3e 27 15 d3 3d cc 29 4e 3e 2a c5 c1 3d
       0.20083469 0.10306769 0.20133132 0.09461434
000110 2c 1f 65 3e ac b4 9e 3e 2d 27 20 be e7 6c 9e bd
       0.22375172 0.30997217 -0.15639944 -0.07735615
000120 24 02 71 be 7d ab 5f bd 3f 37 20 3e 13 cf 33 be
       -0.23535973 -0.054606903 0.15646075 -0.17559461
000130 2d 27 7e 3d 56 fd 27 bd 0a 5d 22 3e d3 11 b9 be
       0.06204908 -0.041013084 0.15855804 -0.3614641
000140 76 11 29 3e 89 99 19 3e 46 f7 2e be f2 0e 06 3e
       0.16510567 0.14999975 -0.17086515 0.13091639
000150 a6 23 c0 bb c9 48 07 3e b7 4d 42 3d 69 80 bc be
       -0.0058636246 0.13211359 0.047437396 -0.3681672
000160 05 6e 30 be 88 91 d9 be 7a 55 3b 3e 28 b1 98 3c
       -0.17229469 -0.42493844 0.18294325 0.018639162
000170 0f 1f dd 3d df 17 9c be 8e d5 c7 3d 76 ad 10 3e
       0.107969396 -0.30486962 0.09757529 0.1412867
000180 de c7 0f 3e 57 9a a4 be 7e 7c c4 bd 92 23 92 be
       0.14041087 -0.32149002 -0.095940575 -0.28542763
000190 4e 13 49 3c ba 4d e5 3d 46 16 b4 3c 33 66 d8 bd
       0.012272669 0.11196466 0.021983277 -0.10566368
0001a0 e6 5c 73 bd 57 de 36 be 23 29 14 bd d3 13 08 be
       -0.059414767 -0.17858253 -0.036172044 -0.13288812
0001b0 49 5b 40 bd 1d ae 76 3e 64 7c 04 be bc f7 bd bd
       -0.046962056 0.24089856 -0.12938076 -0.09275767
0001c0 3b df 4b be d9 41 e8 bd 86 13 15 bf a6 8d f6 bd
       -0.19909374 -0.113406844 -0.58232915 -0.12038736
0001d0 63 c1 00 be 1a d2 9d 3d 0e ef 92 bd 46 cd 52 be
       -0.12573771 0.07706089 -0.07174502 -0.20586118
0001e0 f0 34 fb bc c2 f1 aa bc ba 40 29 3d e3 d8 a0 3c
       -0.030664891 -0.020867232 0.041321494 0.01963467
0001f0 10 4e 04 3e 96 1f 47 3e ff ca 08 be 9e 36 4a be
       0.12920403 0.19445643 -0.13358687 -0.19747397
000200 42 1e 81 be 5d 63 56 bd 2d 36 1b be 6a 43 dd bd
       -0.25218397 -0.052340854 -0.15157385 -0.10803874
000210 4c db 62 bf c8 f5 cf 3d a5 fe d9 be ad b5 af be
       -0.8861587 0.10154301 -0.4257709 -0.34318295
000220 4e c2 87 bd 12 0e 66 be 48 d1 5b 3e af 8f e5 3e
       -0.066288576 -0.22466305 0.21466553 0.44836184
000230 39 09 c9 3e 56 9e 29 be 4c 0b 89 3c 01 63 80 be
       0.3926485 -0.16564307 0.01672902 -0.25075534
000240 17 ea 04 bd 2e d7 e8 be 9d ff dc 3d 1c 2f b2 3e
       -0.032449808 -0.4547667 0.10790942 0.34801567
000250 a1 2c 4d 3e 84 4c 96 3d 44 d9 60 3e 47 a4 23 3e
       0.20036556 0.07338813 0.2195788 0.15980636
000260 85 d0 c7 bd 6b 1f 2c 3e 4d e3 97 3e d0 4c 14 bf
       -0.09756569 0.1680886 0.29665604 -0.57929707
000270 41 22 7e 3e 17 d6 20 bf 5f 21 b7 bd 16 59 b7 be
       0.24817754 -0.62826675 -0.08941912 -0.35810155
000280 2f 52 9e 3d ef d7 8b 3a 08 b6 26 be 03 56 45 3e
       0.07730519 0.0010669212 -0.16280377 0.19271092
000290 32 65 91 3e 53 fd b2 be 4c 18 54 3e 14 da cb be
       0.28397518 -0.34958896 0.20712394 -0.39814818
0002a0 83 67 0f be 59 40 8c be 6f a5 09 bd 7c 65 81 be
       -0.1400433 -0.27392843 -0.033605035 -0.2527274
0002b0 89 24 a0 be 76 92 9d 3e f6 04 0c 3d a4 75 95 bd
       -0.31277874 0.30775803 0.03418442 -0.07297829
0002c0 7a 7e 41 be 48 eb 64 bd d8 a7 5a be 25 cb 34 be
       -0.18895903 -0.055888444 -0.2135309 -0.17655618
0002d0 6b a6 de bd 6c 6a da be 47 30 fd 3d 2e 96 f4 bc
       -0.108715855 -0.42659318 0.12362724 -0.029856768
0002e0 a3 c6 af 3d 65 67 8d be 43 91 b7 be 59 a0 35 be
       0.08582809 -0.27617946 -0.35853013 -0.17736949
0002f0 63 e5 0f bf 22 0c 73 be 86 1a d5 3d bc 66 0b bf
       -0.5620939 -0.23735097 0.104054496 -0.54453635
000300 b3 54 94 be 5f ef f2 bd 4a 3c 6a bd a4 84 45 bc
       -0.2897087 -0.11862063 -0.057186402 -0.01205555
000310 d1 5b 72 bc e9 67 68 3e 84 38 05 bf af e3 c2 be
       -0.014792399 0.22695889 -0.5203936 -0.38064334
000320 95 34 62 3d 92 11 aa bd d4 9a 8c 3d 4c ff 8a be
       0.055225927 -0.083041325 0.068654686 -0.271479
000330 4b 4f 68 3d a1 2b 2a 3e 06 7a 91 be 65 f0 80 be
       0.056716245 0.16618206 -0.2841341 -0.25183406
000340 2f 59 1f 3e da 33 bc 3c 42 70 22 3e d9 ae fd bd
       0.15561365 0.022973944 0.15863135 -0.12386865
000350 8e 3d 09 3e 64 81 ed 3c 43 f8 65 3d 8c fd a0 3d
       0.13402387 0.028992362 0.056144964 0.0786086
000360 a3 a0 af bc 3b bf 4f be 82 79 58 3d dc 2a 63 3d
       -0.021438902 -0.20287792 0.052850254 0.055460796
000370 3d a3 7f 3e f2 f8 75 bd bf 70 bf be 14 41 fe be
       0.24964614 -0.060051866 -0.37390706 -0.49659026
000380 15 d7 5c 3d 17 19 4c bd 5d 27 b4 3e 8a d4 b4 3e
       0.053916056 -0.049828615 0.35186282 0.35318404
000390 b4 7f 84 be 05 1e 87 be 72 6a 69 be de 88 34 be
       -0.2587868 -0.2639009 -0.22794512 -0.17630336
0003a0 61 cb 97 3d 2e e7 12 be ec 38 e0 be 3d 3a 66 3e
       0.07411838 -0.14346 -0.43793428 0.22483154
0003b0 f5 34 b5 be 31 fb 59 be 06 bd 97 3e e4 47 e0 bb
       -0.35391966 -0.21287228 0.296364 -0.0068445075
0003c0 d4 0e cd be d4 48 d2 3d 08 2d 2a bf 41 56 3c 3d
       -0.40050375 0.10267797 -0.6647496 0.045980696
0003d0 2b b5 c0 be ca 23 11 be 3c 95 b8 bd d2 2f 8e bc
       -0.3763822 -0.14173809 -0.09012839 -0.017356787
0003e0 1b 5b 1f 3e 45 ad fd be d8 94 8c bb 9d a3 94 be
       0.15562098 -0.49546257 -0.0042902045 -0.29031077
0003f0 93 0d b7 be 06 cb da 3c 57 29 95 bd d8 3c db 3e
       -0.35752544 0.026708137 -0.072832756 0.42819858
